…
I0306 20:03:21.708657  2053 net.cpp:49] Initializing net from parameters: 
name: "YelpNet"
state {
  phase: TRAIN
}
layer {
  name: "data"
  type: "Data"
  top: "data"
  include {
    phase: TRAIN
  }
  transform_param {
    mirror: true
    crop_size: 227
    mean_file: "image_mean.binaryproto"
  }
  data_param {
    source: "train_image_lmdb"
    batch_size: 256
    backend: LMDB
  }
}
layer {
  name: "labels"
  type: "Data"
  top: "labels"
  include {
    phase: TRAIN
  }
  data_param {
    source: "train_labels_lmdb"
    batch_size: 256
    backend: LMDB
  }
}
layer {
  name: "conv1"
  type: "Convolution"
  bottom: "data"
  top: "conv1"
  param {
    lr_mult: 1
    decay_mult: 1
  }
  param {
    lr_mult: 2
    decay_mult: 0
  }
  convolution_param {
    num_output: 96
    kernel_size: 11
    stride: 4
    weight_filler {
      type: "gaussian"
      std: 0.01
    }
    bias_filler {
      type: "constant"
      value: 0
    }
  }
}
layer {
  name: "relu1"
  type: "ReLU"
  bottom: "conv1"
  top: "conv1"
}
layer {
  name: "pool1"
  type: "Pooling"
  bottom: "conv1"
  top: "pool1"
  pooling_param {
    pool: MAX
    kernel_size: 3
    stride: 2
  }
}
layer {
  name: "norm1"
  type: "LRN"
  bottom: "pool1"
  top: "norm1"
  lrn_param {
    local_size: 5
    alpha: 0.0001
    beta: 0.75
  }
}
layer {
  name: "conv2"
  type: "Convolution"
  bottom: "norm1"
  top: "conv2"
  param {
    lr_mult: 1
    decay_mult: 1
  }
  param {
    lr_mult: 2
    decay_mult: 0
  }
  convolution_param {
    num_output: 256
    pad: 2
    kernel_size: 5
    group: 2
    weight_filler {
      type: "gaussian"
      std: 0.01
    }
    bias_filler {
      type: "constant"
      value: 1
    }
  }
}
layer {
  name: "relu2"
  type: "ReLU"
  bottom: "conv2"
  top: "conv2"
}
layer {
  name: "pool2"
  type: "Pooling"
  bottom: "conv2"
  top: "pool2"
  pooling_param {
    pool: MAX
    kernel_size: 3
    stride: 2
  }
}
layer {
  name: "norm2"
  type: "LRN"
  bottom: "pool2"
  top: "norm2"
  lrn_param {
    local_size: 5
    alpha: 0.0001
    beta: 0.75
  }
}
layer {
  name: "conv3"
  type: "Convolution"
  bottom: "norm2"
  top: "conv3"
  param {
    lr_mult: 1
    decay_mult: 1
  }
  param {
    lr_mult: 2
    decay_mult: 0
  }
  convolution_param {
    num_output: 384
    pad: 1
    kernel_size: 3
    weight_filler {
      type: "gaussian"
      std: 0.01
    }
    bias_filler {
      type: "constant"
      value: 0
    }
  }
}
layer {
  name: "relu3"
  type: "ReLU"
  bottom: "conv3"
  top: "conv3"
}
layer {
  name: "conv4"
  type: "Convolution"
  bottom: "conv3"
  top: "conv4"
  param {
    lr_mult: 1
    decay_mult: 1
  }
  param {
    lr_mult: 2
    decay_mult: 0
  }
  convolution_param {
    num_output: 384
    pad: 1
    kernel_size: 3
    group: 2
    weight_filler {
      type: "gaussian"
      std: 0.01
    }
    bias_filler {
      type: "constant"
      value: 1
    }
  }
}
layer {
  name: "relu4"
  type: "ReLU"
  bottom: "conv4"
  top: "conv4"
}
layer {
  name: "conv5"
  type: "Convolution"
  bottom: "conv4"
  top: "conv5"
  param {
    lr_mult: 1
    decay_mult: 1
  }
  param {
    lr_mult: 2
    decay_mult: 0
  }
  convolution_param {
    num_output: 256
    pad: 1
    kernel_size: 3
    group: 2
    weight_filler {
      type: "gaussian"
      std: 0.01
    }
    bias_filler {
      type: "constant"
      value: 1
    }
  }
}
layer {
  name: "relu5"
  type: "ReLU"
  bottom: "conv5"
  top: "conv5"
}
layer {
  name: "pool5"
  type: "Pooling"
  bottom: "conv5"
  top: "pool5"
  pooling_param {
    pool: MAX
    kernel_size: 3
    stride: 2
  }
}
layer {
  name: "fc6"
  type: "InnerProduct"
  bottom: "pool5"
  top: "fc6"
  param {
    lr_mult: 1
    decay_mult: 1
  }
  param {
    lr_mult: 2
    decay_mult: 0
  }
  inner_product_param {
    num_output: 4096
    weight_filler {
      type: "gaussian"
      std: 0.005
    }
    bias_filler {
      type: "constant"
      value: 1
    }
  }
}
layer {
  name: "relu6"
  type: "ReLU"
  bottom: "fc6"
  top: "fc6"
}
layer {
  name: "drop6"
  type: "Dropout"
  bottom: "fc6"
  top: "fc6"
  dropout_param {
    dropout_ratio: 0.5
  }
}
layer {
  name: "fc7"
  type: "InnerProduct"
  bottom: "fc6"
  top: "fc7"
  param {
    lr_mult: 1
    decay_mult: 1
  }
  param {
    lr_mult: 2
    decay_mult: 0
  }
  inner_product_param {
    num_output: 4096
    weight_filler {
      type: "gaussian"
      std: 0.005
    }
    bias_filler {
      type: "constant"
      value: 1
    }
  }
}
layer {
  name: "relu7"
  type: "ReLU"
  bottom: "fc7"
  top: "fc7"
}
layer {
  name: "drop7"
  type: "Dropout"
  bottom: "fc7"
  top: "fc7"
  dropout_param {
    dropout_ratio: 0.5
  }
}
layer {
  name: "fc8/yelp"
  type: "InnerProduct"
  bottom: "fc7"
  top: "fc8/yelp"
  param {
    lr_mult: 10
    decay_mult: 1
  }
  param {
    lr_mult: 20
    decay_mult: 0
  }
  inner_product_param {
    num_output: 9
    weight_filler {
      type: "gaussian"
      std: 0.01
    }
    bias_filler {
      type: "constant"
      value: 0
    }
  }
}
layer {
  name: "loss"
  type: "SigmoidCrossEntropyLoss"
  bottom: "fc8/yelp"
  bottom: "labels"
  top: "loss"
}
I0306 20:03:21.711323  2053 layer_factory.hpp:77] Creating layer data
I0306 20:03:21.714882  2053 net.cpp:106] Creating Layer data
I0306 20:03:21.714915  2053 net.cpp:411] data -> data
I0306 20:03:21.714992  2053 data_transformer.cpp:25] Loading mean file from: image_mean.binaryproto
I0306 20:03:21.715574  2072 db_lmdb.cpp:38] Opened lmdb train_image_lmdb
I0306 20:03:22.575927  2053 data_layer.cpp:41] output data size: 256,3,227,227
I0306 20:03:22.874764  2053 net.cpp:150] Setting up data
I0306 20:03:22.874826  2053 net.cpp:157] Top shape: 256 3 227 227 (39574272)
I0306 20:03:22.874840  2053 net.cpp:165] Memory required for data: 158297088
I0306 20:03:22.874860  2053 layer_factory.hpp:77] Creating layer labels
I0306 20:03:22.875075  2053 net.cpp:106] Creating Layer labels
I0306 20:03:22.875102  2053 net.cpp:411] labels -> labels
I0306 20:03:22.879998  2074 db_lmdb.cpp:38] Opened lmdb train_labels_lmdb
I0306 20:03:22.894840  2053 data_layer.cpp:41] output data size: 256,9,1,1
I0306 20:03:22.895864  2053 net.cpp:150] Setting up labels
I0306 20:03:22.895895  2053 net.cpp:157] Top shape: 256 9 1 1 (2304)
I0306 20:03:22.895905  2053 net.cpp:165] Memory required for data: 158306304
I0306 20:03:22.895916  2053 layer_factory.hpp:77] Creating layer conv1
I0306 20:03:22.895951  2053 net.cpp:106] Creating Layer conv1
I0306 20:03:22.895967  2053 net.cpp:454] conv1 <- data
I0306 20:03:22.895992  2053 net.cpp:411] conv1 -> conv1
I0306 20:03:33.715406  2053 net.cpp:150] Setting up conv1
I0306 20:03:33.715458  2053 net.cpp:157] Top shape: 256 96 55 55 (74342400)
I0306 20:03:33.715477  2053 net.cpp:165] Memory required for data: 455675904
I0306 20:03:33.715512  2053 layer_factory.hpp:77] Creating layer relu1
I0306 20:03:33.715536  2053 net.cpp:106] Creating Layer relu1
I0306 20:03:33.715549  2053 net.cpp:454] relu1 <- conv1
I0306 20:03:33.715564  2053 net.cpp:397] relu1 -> conv1 (in-place)
I0306 20:03:33.715773  2053 net.cpp:150] Setting up relu1
I0306 20:03:33.715814  2053 net.cpp:157] Top shape: 256 96 55 55 (74342400)
I0306 20:03:33.715829  2053 net.cpp:165] Memory required for data: 753045504
I0306 20:03:33.715839  2053 layer_factory.hpp:77] Creating layer pool1
I0306 20:03:33.715860  2053 net.cpp:106] Creating Layer pool1
I0306 20:03:33.715872  2053 net.cpp:454] pool1 <- conv1
I0306 20:03:33.715920  2053 net.cpp:411] pool1 -> pool1
I0306 20:03:33.716004  2053 net.cpp:150] Setting up pool1
I0306 20:03:33.716024  2053 net.cpp:157] Top shape: 256 96 27 27 (17915904)
I0306 20:03:33.716042  2053 net.cpp:165] Memory required for data: 824709120
I0306 20:03:33.716063  2053 layer_factory.hpp:77] Creating layer norm1
I0306 20:03:33.716100  2053 net.cpp:106] Creating Layer norm1
I0306 20:03:33.716114  2053 net.cpp:454] norm1 <- pool1
I0306 20:03:33.716125  2053 net.cpp:411] norm1 -> norm1
I0306 20:03:33.717304  2053 net.cpp:150] Setting up norm1
I0306 20:03:33.717334  2053 net.cpp:157] Top shape: 256 96 27 27 (17915904)
I0306 20:03:33.717344  2053 net.cpp:165] Memory required for data: 896372736
I0306 20:03:33.717355  2053 layer_factory.hpp:77] Creating layer conv2
I0306 20:03:33.717376  2053 net.cpp:106] Creating Layer conv2
I0306 20:03:33.717386  2053 net.cpp:454] conv2 <- norm1
I0306 20:03:33.717399  2053 net.cpp:411] conv2 -> conv2
I0306 20:03:33.729490  2053 net.cpp:150] Setting up conv2
I0306 20:03:33.729524  2053 net.cpp:157] Top shape: 256 256 27 27 (47775744)
I0306 20:03:33.729535  2053 net.cpp:165] Memory required for data: 1087475712
I0306 20:03:33.729552  2053 layer_factory.hpp:77] Creating layer relu2
I0306 20:03:33.729567  2053 net.cpp:106] Creating Layer relu2
I0306 20:03:33.729576  2053 net.cpp:454] relu2 <- conv2
I0306 20:03:33.729588  2053 net.cpp:397] relu2 -> conv2 (in-place)
I0306 20:03:33.729840  2053 net.cpp:150] Setting up relu2
I0306 20:03:33.729868  2053 net.cpp:157] Top shape: 256 256 27 27 (47775744)
I0306 20:03:33.729878  2053 net.cpp:165] Memory required for data: 1278578688
I0306 20:03:33.729888  2053 layer_factory.hpp:77] Creating layer pool2
I0306 20:03:33.729907  2053 net.cpp:106] Creating Layer pool2
I0306 20:03:33.729919  2053 net.cpp:454] pool2 <- conv2
I0306 20:03:33.729931  2053 net.cpp:411] pool2 -> pool2
I0306 20:03:33.729984  2053 net.cpp:150] Setting up pool2
I0306 20:03:33.730000  2053 net.cpp:157] Top shape: 256 256 13 13 (11075584)
I0306 20:03:33.730008  2053 net.cpp:165] Memory required for data: 1322881024
I0306 20:03:33.730017  2053 layer_factory.hpp:77] Creating layer norm2
I0306 20:03:33.730033  2053 net.cpp:106] Creating Layer norm2
I0306 20:03:33.730043  2053 net.cpp:454] norm2 <- pool2
I0306 20:03:33.730054  2053 net.cpp:411] norm2 -> norm2
I0306 20:03:33.730237  2053 net.cpp:150] Setting up norm2
I0306 20:03:33.730262  2053 net.cpp:157] Top shape: 256 256 13 13 (11075584)
I0306 20:03:33.730280  2053 net.cpp:165] Memory required for data: 1367183360
I0306 20:03:33.730294  2053 layer_factory.hpp:77] Creating layer conv3
I0306 20:03:33.730312  2053 net.cpp:106] Creating Layer conv3
I0306 20:03:33.730324  2053 net.cpp:454] conv3 <- norm2
I0306 20:03:33.730340  2053 net.cpp:411] conv3 -> conv3
I0306 20:03:33.760691  2053 net.cpp:150] Setting up conv3
I0306 20:03:33.760723  2053 net.cpp:157] Top shape: 256 384 13 13 (16613376)
I0306 20:03:33.760735  2053 net.cpp:165] Memory required for data: 1433636864
I0306 20:03:33.760752  2053 layer_factory.hpp:77] Creating layer relu3
I0306 20:03:33.760769  2053 net.cpp:106] Creating Layer relu3
I0306 20:03:33.760779  2053 net.cpp:454] relu3 <- conv3
I0306 20:03:33.760792  2053 net.cpp:397] relu3 -> conv3 (in-place)
I0306 20:03:33.761029  2053 net.cpp:150] Setting up relu3
I0306 20:03:33.761055  2053 net.cpp:157] Top shape: 256 384 13 13 (16613376)
I0306 20:03:33.761066  2053 net.cpp:165] Memory required for data: 1500090368
I0306 20:03:33.761075  2053 layer_factory.hpp:77] Creating layer conv4
I0306 20:03:33.761095  2053 net.cpp:106] Creating Layer conv4
I0306 20:03:33.761106  2053 net.cpp:454] conv4 <- conv3
I0306 20:03:33.761121  2053 net.cpp:411] conv4 -> conv4
I0306 20:03:33.784550  2053 net.cpp:150] Setting up conv4
I0306 20:03:33.784581  2053 net.cpp:157] Top shape: 256 384 13 13 (16613376)
I0306 20:03:33.784593  2053 net.cpp:165] Memory required for data: 1566543872
I0306 20:03:33.784607  2053 layer_factory.hpp:77] Creating layer relu4
I0306 20:03:33.784621  2053 net.cpp:106] Creating Layer relu4
I0306 20:03:33.784648  2053 net.cpp:454] relu4 <- conv4
I0306 20:03:33.784664  2053 net.cpp:397] relu4 -> conv4 (in-place)
I0306 20:03:33.784899  2053 net.cpp:150] Setting up relu4
I0306 20:03:33.784927  2053 net.cpp:157] Top shape: 256 384 13 13 (16613376)
I0306 20:03:33.784937  2053 net.cpp:165] Memory required for data: 1632997376
I0306 20:03:33.784948  2053 layer_factory.hpp:77] Creating layer conv5
I0306 20:03:33.784967  2053 net.cpp:106] Creating Layer conv5
I0306 20:03:33.784978  2053 net.cpp:454] conv5 <- conv4
I0306 20:03:33.784994  2053 net.cpp:411] conv5 -> conv5
I0306 20:03:33.801393  2053 net.cpp:150] Setting up conv5
I0306 20:03:33.801424  2053 net.cpp:157] Top shape: 256 256 13 13 (11075584)
I0306 20:03:33.801436  2053 net.cpp:165] Memory required for data: 1677299712
I0306 20:03:33.801456  2053 layer_factory.hpp:77] Creating layer relu5
I0306 20:03:33.801471  2053 net.cpp:106] Creating Layer relu5
I0306 20:03:33.801482  2053 net.cpp:454] relu5 <- conv5
I0306 20:03:33.801496  2053 net.cpp:397] relu5 -> conv5 (in-place)
I0306 20:03:33.801760  2053 net.cpp:150] Setting up relu5
I0306 20:03:33.801789  2053 net.cpp:157] Top shape: 256 256 13 13 (11075584)
I0306 20:03:33.801798  2053 net.cpp:165] Memory required for data: 1721602048
I0306 20:03:33.801808  2053 layer_factory.hpp:77] Creating layer pool5
I0306 20:03:33.801828  2053 net.cpp:106] Creating Layer pool5
I0306 20:03:33.801839  2053 net.cpp:454] pool5 <- conv5
I0306 20:03:33.801851  2053 net.cpp:411] pool5 -> pool5
I0306 20:03:33.801908  2053 net.cpp:150] Setting up pool5
I0306 20:03:33.801923  2053 net.cpp:157] Top shape: 256 256 6 6 (2359296)
I0306 20:03:33.801931  2053 net.cpp:165] Memory required for data: 1731039232
I0306 20:03:33.801941  2053 layer_factory.hpp:77] Creating layer fc6
I0306 20:03:33.803609  2053 net.cpp:106] Creating Layer fc6
I0306 20:03:33.803632  2053 net.cpp:454] fc6 <- pool5
I0306 20:03:33.803647  2053 net.cpp:411] fc6 -> fc6
I0306 20:03:35.066565  2053 net.cpp:150] Setting up fc6
I0306 20:03:35.066622  2053 net.cpp:157] Top shape: 256 4096 (1048576)
I0306 20:03:35.066632  2053 net.cpp:165] Memory required for data: 1735233536
I0306 20:03:35.066653  2053 layer_factory.hpp:77] Creating layer relu6
I0306 20:03:35.066673  2053 net.cpp:106] Creating Layer relu6
I0306 20:03:35.066684  2053 net.cpp:454] relu6 <- fc6
I0306 20:03:35.066699  2053 net.cpp:397] relu6 -> fc6 (in-place)
I0306 20:03:35.066984  2053 net.cpp:150] Setting up relu6
I0306 20:03:35.067013  2053 net.cpp:157] Top shape: 256 4096 (1048576)
I0306 20:03:35.067024  2053 net.cpp:165] Memory required for data: 1739427840
I0306 20:03:35.067034  2053 layer_factory.hpp:77] Creating layer drop6
I0306 20:03:35.067057  2053 net.cpp:106] Creating Layer drop6
I0306 20:03:35.067068  2053 net.cpp:454] drop6 <- fc6
I0306 20:03:35.067080  2053 net.cpp:397] drop6 -> fc6 (in-place)
I0306 20:03:35.067152  2053 net.cpp:150] Setting up drop6
I0306 20:03:35.067173  2053 net.cpp:157] Top shape: 256 4096 (1048576)
I0306 20:03:35.067185  2053 net.cpp:165] Memory required for data: 1743622144
I0306 20:03:35.067203  2053 layer_factory.hpp:77] Creating layer fc7
I0306 20:03:35.067236  2053 net.cpp:106] Creating Layer fc7
I0306 20:03:35.067253  2053 net.cpp:454] fc7 <- fc6
I0306 20:03:35.067270  2053 net.cpp:411] fc7 -> fc7
I0306 20:03:35.630210  2053 net.cpp:150] Setting up fc7
I0306 20:03:35.630266  2053 net.cpp:157] Top shape: 256 4096 (1048576)
I0306 20:03:35.630278  2053 net.cpp:165] Memory required for data: 1747816448
I0306 20:03:35.630297  2053 layer_factory.hpp:77] Creating layer relu7
I0306 20:03:35.630318  2053 net.cpp:106] Creating Layer relu7
I0306 20:03:35.630329  2053 net.cpp:454] relu7 <- fc7
I0306 20:03:35.630343  2053 net.cpp:397] relu7 -> fc7 (in-place)
I0306 20:03:35.630738  2053 net.cpp:150] Setting up relu7
I0306 20:03:35.630769  2053 net.cpp:157] Top shape: 256 4096 (1048576)
I0306 20:03:35.630779  2053 net.cpp:165] Memory required for data: 1752010752
I0306 20:03:35.630789  2053 layer_factory.hpp:77] Creating layer drop7
I0306 20:03:35.630805  2053 net.cpp:106] Creating Layer drop7
I0306 20:03:35.630848  2053 net.cpp:454] drop7 <- fc7
I0306 20:03:35.630864  2053 net.cpp:397] drop7 -> fc7 (in-place)
I0306 20:03:35.630900  2053 net.cpp:150] Setting up drop7
I0306 20:03:35.630915  2053 net.cpp:157] Top shape: 256 4096 (1048576)
I0306 20:03:35.630928  2053 net.cpp:165] Memory required for data: 1756205056
I0306 20:03:35.630938  2053 layer_factory.hpp:77] Creating layer fc8/yelp
I0306 20:03:35.630954  2053 net.cpp:106] Creating Layer fc8/yelp
I0306 20:03:35.630962  2053 net.cpp:454] fc8/yelp <- fc7
I0306 20:03:35.630975  2053 net.cpp:411] fc8/yelp -> fc8/yelp
I0306 20:03:35.632302  2053 net.cpp:150] Setting up fc8/yelp
I0306 20:03:35.632328  2053 net.cpp:157] Top shape: 256 9 (2304)
I0306 20:03:35.632338  2053 net.cpp:165] Memory required for data: 1756214272
I0306 20:03:35.632350  2053 layer_factory.hpp:77] Creating layer loss
I0306 20:03:35.632372  2053 net.cpp:106] Creating Layer loss
I0306 20:03:35.632383  2053 net.cpp:454] loss <- fc8/yelp
I0306 20:03:35.632393  2053 net.cpp:454] loss <- labels
I0306 20:03:35.632411  2053 net.cpp:411] loss -> loss
I0306 20:03:35.634232  2053 net.cpp:150] Setting up loss
…
I0306 20:03:35.635721  2053 net.cpp:49] Initializing net from parameters: 
name: "YelpNet"
state {
  phase: TEST
}
layer {
  name: "data"
  type: "Data"
  top: "data"
  include {
    phase: TEST
  }
  transform_param {
    mirror: false
    crop_size: 227
    mean_file: "image_mean.binaryproto"
  }
  data_param {
    source: "val_image_lmdb"
    batch_size: 64
    backend: LMDB
  }
}
layer {
  name: "labels"
  type: "Data"
  top: "labels"
  include {
    phase: TEST
  }
  data_param {
    source: "val_labels_lmdb"
    batch_size: 64
    backend: LMDB
  }
}
layer {
  name: "conv1"
  type: "Convolution"
  bottom: "data"
  top: "conv1"
  param {
    lr_mult: 1
    decay_mult: 1
  }
  param {
    lr_mult: 2
    decay_mult: 0
  }
  convolution_param {
    num_output: 96
    kernel_size: 11
    stride: 4
    weight_filler {
      type: "gaussian"
      std: 0.01
    }
    bias_filler {
      type: "constant"
      value: 0
    }
  }
}
layer {
  name: "relu1"
  type: "ReLU"
  bottom: "conv1"
  top: "conv1"
}
layer {
  name: "pool1"
  type: "Pooling"
  bottom: "conv1"
  top: "pool1"
  pooling_param {
    pool: MAX
    kernel_size: 3
    stride: 2
  }
}
layer {
  name: "norm1"
  type: "LRN"
  bottom: "pool1"
  top: "norm1"
  lrn_param {
    local_size: 5
    alpha: 0.0001
    beta: 0.75
  }
}
layer {
  name: "conv2"
  type: "Convolution"
  bottom: "norm1"
  top: "conv2"
  param {
    lr_mult: 1
    decay_mult: 1
  }
  param {
    lr_mult: 2
    decay_mult: 0
  }
  convolution_param {
    num_output: 256
    pad: 2
    kernel_size: 5
    group: 2
    weight_filler {
      type: "gaussian"
      std: 0.01
    }
    bias_filler {
      type: "constant"
      value: 1
    }
  }
}
layer {
  name: "relu2"
  type: "ReLU"
  bottom: "conv2"
  top: "conv2"
}
layer {
  name: "pool2"
  type: "Pooling"
  bottom: "conv2"
  top: "pool2"
  pooling_param {
    pool: MAX
    kernel_size: 3
    stride: 2
  }
}
layer {
  name: "norm2"
  type: "LRN"
  bottom: "pool2"
  top: "norm2"
  lrn_param {
    local_size: 5
    alpha: 0.0001
    beta: 0.75
  }
}
layer {
  name: "conv3"
  type: "Convolution"
  bottom: "norm2"
  top: "conv3"
  param {
    lr_mult: 1
    decay_mult: 1
  }
  param {
    lr_mult: 2
    decay_mult: 0
  }
  convolution_param {
    num_output: 384
    pad: 1
    kernel_size: 3
    weight_filler {
      type: "gaussian"
      std: 0.01
    }
    bias_filler {
      type: "constant"
      value: 0
    }
  }
}
layer {
  name: "relu3"
  type: "ReLU"
  bottom: "conv3"
  top: "conv3"
}
layer {
  name: "conv4"
  type: "Convolution"
  bottom: "conv3"
  top: "conv4"
  param {
    lr_mult: 1
    decay_mult: 1
  }
  param {
    lr_mult: 2
    decay_mult: 0
  }
  convolution_param {
    num_output: 384
    pad: 1
    kernel_size: 3
    group: 2
    weight_filler {
      type: "gaussian"
      std: 0.01
    }
    bias_filler {
      type: "constant"
      value: 1
    }
  }
}
layer {
  name: "relu4"
  type: "ReLU"
  bottom: "conv4"
  top: "conv4"
}
layer {
  name: "conv5"
  type: "Convolution"
  bottom: "conv4"
  top: "conv5"
  param {
    lr_mult: 1
    decay_mult: 1
  }
  param {
    lr_mult: 2
    decay_mult: 0
  }
  convolution_param {
    num_output: 256
    pad: 1
    kernel_size: 3
    group: 2
    weight_filler {
      type: "gaussian"
      std: 0.01
    }
    bias_filler {
      type: "constant"
      value: 1
    }
  }
}
layer {
  name: "relu5"
  type: "ReLU"
  bottom: "conv5"
  top: "conv5"
}
layer {
  name: "pool5"
  type: "Pooling"
  bottom: "conv5"
  top: "pool5"
  pooling_param {
    pool: MAX
    kernel_size: 3
    stride: 2
  }
}
layer {
  name: "fc6"
  type: "InnerProduct"
  bottom: "pool5"
  top: "fc6"
  param {
    lr_mult: 1
    decay_mult: 1
  }
  param {
    lr_mult: 2
    decay_mult: 0
  }
  inner_product_param {
    num_output: 4096
    weight_filler {
      type: "gaussian"
      std: 0.005
    }
    bias_filler {
      type: "constant"
      value: 1
    }
  }
}
layer {
  name: "relu6"
  type: "ReLU"
  bottom: "fc6"
  top: "fc6"
}
layer {
  name: "drop6"
  type: "Dropout"
  bottom: "fc6"
  top: "fc6"
  dropout_param {
    dropout_ratio: 0.5
  }
}
layer {
  name: "fc7"
  type: "InnerProduct"
  bottom: "fc6"
  top: "fc7"
  param {
    lr_mult: 1
    decay_mult: 1
  }
  param {
    lr_mult: 2
    decay_mult: 0
  }
  inner_product_param {
    num_output: 4096
    weight_filler {
      type: "gaussian"
      std: 0.005
    }
    bias_filler {
      type: "constant"
      value: 1
    }
  }
}
layer {
  name: "relu7"
  type: "ReLU"
  bottom: "fc7"
  top: "fc7"
}
layer {
  name: "drop7"
  type: "Dropout"
  bottom: "fc7"
  top: "fc7"
  dropout_param {
    dropout_ratio: 0.5
  }
}
layer {
  name: "fc8/yelp"
  type: "InnerProduct"
  bottom: "fc7"
  top: "fc8/yelp"
  param {
    lr_mult: 10
    decay_mult: 1
  }
  param {
    lr_mult: 20
    decay_mult: 0
  }
  inner_product_param {
    num_output: 9
    weight_filler {
      type: "gaussian"
      std: 0.01
    }
    bias_filler {
      type: "constant"
      value: 0
    }
  }
}
layer {
  name: "loss"
  type: "SigmoidCrossEntropyLoss"
  bottom: "fc8/yelp"
  bottom: "labels"
  top: "loss"
}
I0306 20:03:35.636876  2053 layer_factory.hpp:77] Creating layer data
I0306 20:03:35.637425  2053 net.cpp:106] Creating Layer data
I0306 20:03:35.637452  2053 net.cpp:411] data -> data
I0306 20:03:35.637471  2053 data_transformer.cpp:25] Loading mean file from: image_mean.binaryproto
I0306 20:03:35.638916  2076 db_lmdb.cpp:38] Opened lmdb val_image_lmdb
I0306 20:03:35.641660  2053 data_layer.cpp:41] output data size: 64,3,227,227
I0306 20:03:35.718085  2053 net.cpp:150] Setting up data
I0306 20:03:35.718137  2053 net.cpp:157] Top shape: 64 3 227 227 (9893568)
I0306 20:03:35.718148  2053 net.cpp:165] Memory required for data: 39574272
I0306 20:03:35.718163  2053 layer_factory.hpp:77] Creating layer labels
I0306 20:03:35.718281  2053 net.cpp:106] Creating Layer labels
I0306 20:03:35.718299  2053 net.cpp:411] labels -> labels
I0306 20:03:35.722295  2078 db_lmdb.cpp:38] Opened lmdb val_labels_lmdb
I0306 20:03:35.724743  2053 data_layer.cpp:41] output data size: 64,9,1,1
I0306 20:03:35.725600  2053 net.cpp:150] Setting up labels
I0306 20:03:35.725628  2053 net.cpp:157] Top shape: 64 9 1 1 (576)
I0306 20:03:35.725639  2053 net.cpp:165] Memory required for data: 39576576
I0306 20:03:35.725649  2053 layer_factory.hpp:77] Creating layer conv1
I0306 20:03:35.725675  2053 net.cpp:106] Creating Layer conv1
I0306 20:03:35.725689  2053 net.cpp:454] conv1 <- data
I0306 20:03:35.725710  2053 net.cpp:411] conv1 -> conv1
I0306 20:03:35.728153  2053 net.cpp:150] Setting up conv1
I0306 20:03:35.728184  2053 net.cpp:157] Top shape: 64 96 55 55 (18585600)
I0306 20:03:35.728200  2053 net.cpp:165] Memory required for data: 113918976
I0306 20:03:35.728224  2053 layer_factory.hpp:77] Creating layer relu1
I0306 20:03:35.728240  2053 net.cpp:106] Creating Layer relu1
I0306 20:03:35.728250  2053 net.cpp:454] relu1 <- conv1
I0306 20:03:35.728263  2053 net.cpp:397] relu1 -> conv1 (in-place)
I0306 20:03:35.728422  2053 net.cpp:150] Setting up relu1
I0306 20:03:35.728448  2053 net.cpp:157] Top shape: 64 96 55 55 (18585600)
I0306 20:03:35.728459  2053 net.cpp:165] Memory required for data: 188261376
I0306 20:03:35.728468  2053 layer_factory.hpp:77] Creating layer pool1
I0306 20:03:35.728485  2053 net.cpp:106] Creating Layer pool1
I0306 20:03:35.728495  2053 net.cpp:454] pool1 <- conv1
I0306 20:03:35.728507  2053 net.cpp:411] pool1 -> pool1
I0306 20:03:35.728567  2053 net.cpp:150] Setting up pool1
I0306 20:03:35.728585  2053 net.cpp:157] Top shape: 64 96 27 27 (4478976)
I0306 20:03:35.728593  2053 net.cpp:165] Memory required for data: 206177280
I0306 20:03:35.728602  2053 layer_factory.hpp:77] Creating layer norm1
I0306 20:03:35.728620  2053 net.cpp:106] Creating Layer norm1
I0306 20:03:35.728629  2053 net.cpp:454] norm1 <- pool1
I0306 20:03:35.728641  2053 net.cpp:411] norm1 -> norm1
I0306 20:03:35.728926  2053 net.cpp:150] Setting up norm1
I0306 20:03:35.728955  2053 net.cpp:157] Top shape: 64 96 27 27 (4478976)
I0306 20:03:35.728965  2053 net.cpp:165] Memory required for data: 224093184
I0306 20:03:35.728974  2053 layer_factory.hpp:77] Creating layer conv2
I0306 20:03:35.728992  2053 net.cpp:106] Creating Layer conv2
I0306 20:03:35.729003  2053 net.cpp:454] conv2 <- norm1
I0306 20:03:35.729018  2053 net.cpp:411] conv2 -> conv2
I0306 20:03:35.741513  2053 net.cpp:150] Setting up conv2
I0306 20:03:35.741556  2053 net.cpp:157] Top shape: 64 256 27 27 (11943936)
I0306 20:03:35.741595  2053 net.cpp:165] Memory required for data: 271868928
I0306 20:03:35.741617  2053 layer_factory.hpp:77] Creating layer relu2
I0306 20:03:35.741634  2053 net.cpp:106] Creating Layer relu2
I0306 20:03:35.741649  2053 net.cpp:454] relu2 <- conv2
I0306 20:03:35.741663  2053 net.cpp:397] relu2 -> conv2 (in-place)
I0306 20:03:35.741834  2053 net.cpp:150] Setting up relu2
I0306 20:03:35.741870  2053 net.cpp:157] Top shape: 64 256 27 27 (11943936)
I0306 20:03:35.741891  2053 net.cpp:165] Memory required for data: 319644672
I0306 20:03:35.741910  2053 layer_factory.hpp:77] Creating layer pool2
I0306 20:03:35.741935  2053 net.cpp:106] Creating Layer pool2
I0306 20:03:35.741945  2053 net.cpp:454] pool2 <- conv2
I0306 20:03:35.741957  2053 net.cpp:411] pool2 -> pool2
I0306 20:03:35.742018  2053 net.cpp:150] Setting up pool2
I0306 20:03:35.742034  2053 net.cpp:157] Top shape: 64 256 13 13 (2768896)
I0306 20:03:35.742043  2053 net.cpp:165] Memory required for data: 330720256
I0306 20:03:35.742053  2053 layer_factory.hpp:77] Creating layer norm2
I0306 20:03:35.742068  2053 net.cpp:106] Creating Layer norm2
I0306 20:03:35.742077  2053 net.cpp:454] norm2 <- pool2
I0306 20:03:35.742089  2053 net.cpp:411] norm2 -> norm2
I0306 20:03:35.742454  2053 net.cpp:150] Setting up norm2
I0306 20:03:35.742494  2053 net.cpp:157] Top shape: 64 256 13 13 (2768896)
I0306 20:03:35.742516  2053 net.cpp:165] Memory required for data: 341795840
I0306 20:03:35.742539  2053 layer_factory.hpp:77] Creating layer conv3
I0306 20:03:35.742573  2053 net.cpp:106] Creating Layer conv3
I0306 20:03:35.742599  2053 net.cpp:454] conv3 <- norm2
I0306 20:03:35.742629  2053 net.cpp:411] conv3 -> conv3
I0306 20:03:35.773669  2053 net.cpp:150] Setting up conv3
I0306 20:03:35.773721  2053 net.cpp:157] Top shape: 64 384 13 13 (4153344)
I0306 20:03:35.773732  2053 net.cpp:165] Memory required for data: 358409216
I0306 20:03:35.773756  2053 layer_factory.hpp:77] Creating layer relu3
I0306 20:03:35.773777  2053 net.cpp:106] Creating Layer relu3
I0306 20:03:35.773789  2053 net.cpp:454] relu3 <- conv3
I0306 20:03:35.773804  2053 net.cpp:397] relu3 -> conv3 (in-place)
I0306 20:03:35.774148  2053 net.cpp:150] Setting up relu3
I0306 20:03:35.774188  2053 net.cpp:157] Top shape: 64 384 13 13 (4153344)
I0306 20:03:35.774209  2053 net.cpp:165] Memory required for data: 375022592
I0306 20:03:35.774232  2053 layer_factory.hpp:77] Creating layer conv4
I0306 20:03:35.774256  2053 net.cpp:106] Creating Layer conv4
I0306 20:03:35.774267  2053 net.cpp:454] conv4 <- conv3
I0306 20:03:35.774281  2053 net.cpp:411] conv4 -> conv4
I0306 20:03:35.798974  2053 net.cpp:150] Setting up conv4
I0306 20:03:35.799021  2053 net.cpp:157] Top shape: 64 384 13 13 (4153344)
I0306 20:03:35.799032  2053 net.cpp:165] Memory required for data: 391635968
I0306 20:03:35.799049  2053 layer_factory.hpp:77] Creating layer relu4
I0306 20:03:35.799069  2053 net.cpp:106] Creating Layer relu4
I0306 20:03:35.799082  2053 net.cpp:454] relu4 <- conv4
I0306 20:03:35.799096  2053 net.cpp:397] relu4 -> conv4 (in-place)
I0306 20:03:35.799285  2053 net.cpp:150] Setting up relu4
I0306 20:03:35.799304  2053 net.cpp:157] Top shape: 64 384 13 13 (4153344)
I0306 20:03:35.799314  2053 net.cpp:165] Memory required for data: 408249344
I0306 20:03:35.799324  2053 layer_factory.hpp:77] Creating layer conv5
I0306 20:03:35.799345  2053 net.cpp:106] Creating Layer conv5
I0306 20:03:35.799355  2053 net.cpp:454] conv5 <- conv4
I0306 20:03:35.799371  2053 net.cpp:411] conv5 -> conv5
I0306 20:03:35.816108  2053 net.cpp:150] Setting up conv5
I0306 20:03:35.816149  2053 net.cpp:157] Top shape: 64 256 13 13 (2768896)
I0306 20:03:35.816160  2053 net.cpp:165] Memory required for data: 419324928
I0306 20:03:35.816182  2053 layer_factory.hpp:77] Creating layer relu5
I0306 20:03:35.816200  2053 net.cpp:106] Creating Layer relu5
I0306 20:03:35.816210  2053 net.cpp:454] relu5 <- conv5
I0306 20:03:35.816223  2053 net.cpp:397] relu5 -> conv5 (in-place)
I0306 20:03:35.816385  2053 net.cpp:150] Setting up relu5
I0306 20:03:35.816404  2053 net.cpp:157] Top shape: 64 256 13 13 (2768896)
I0306 20:03:35.816442  2053 net.cpp:165] Memory required for data: 430400512
I0306 20:03:35.816453  2053 layer_factory.hpp:77] Creating layer pool5
I0306 20:03:35.816473  2053 net.cpp:106] Creating Layer pool5
I0306 20:03:35.816483  2053 net.cpp:454] pool5 <- conv5
I0306 20:03:35.816495  2053 net.cpp:411] pool5 -> pool5
I0306 20:03:35.816558  2053 net.cpp:150] Setting up pool5
I0306 20:03:35.816575  2053 net.cpp:157] Top shape: 64 256 6 6 (589824)
I0306 20:03:35.816583  2053 net.cpp:165] Memory required for data: 432759808
I0306 20:03:35.816592  2053 layer_factory.hpp:77] Creating layer fc6
I0306 20:03:35.816608  2053 net.cpp:106] Creating Layer fc6
I0306 20:03:35.816618  2053 net.cpp:454] fc6 <- pool5
I0306 20:03:35.816632  2053 net.cpp:411] fc6 -> fc6
I0306 20:03:37.087316  2053 net.cpp:150] Setting up fc6
I0306 20:03:37.087375  2053 net.cpp:157] Top shape: 64 4096 (262144)
I0306 20:03:37.087386  2053 net.cpp:165] Memory required for data: 433808384
I0306 20:03:37.087405  2053 layer_factory.hpp:77] Creating layer relu6
I0306 20:03:37.087426  2053 net.cpp:106] Creating Layer relu6
I0306 20:03:37.087438  2053 net.cpp:454] relu6 <- fc6
I0306 20:03:37.087453  2053 net.cpp:397] relu6 -> fc6 (in-place)
I0306 20:03:37.087854  2053 net.cpp:150] Setting up relu6
I0306 20:03:37.087882  2053 net.cpp:157] Top shape: 64 4096 (262144)
I0306 20:03:37.087893  2053 net.cpp:165] Memory required for data: 434856960
I0306 20:03:37.087903  2053 layer_factory.hpp:77] Creating layer drop6
I0306 20:03:37.087919  2053 net.cpp:106] Creating Layer drop6
I0306 20:03:37.087929  2053 net.cpp:454] drop6 <- fc6
I0306 20:03:37.087941  2053 net.cpp:397] drop6 -> fc6 (in-place)
I0306 20:03:37.087985  2053 net.cpp:150] Setting up drop6
I0306 20:03:37.087999  2053 net.cpp:157] Top shape: 64 4096 (262144)
I0306 20:03:37.088009  2053 net.cpp:165] Memory required for data: 435905536
I0306 20:03:37.088019  2053 layer_factory.hpp:77] Creating layer fc7
I0306 20:03:37.088037  2053 net.cpp:106] Creating Layer fc7
I0306 20:03:37.088047  2053 net.cpp:454] fc7 <- fc6
I0306 20:03:37.088060  2053 net.cpp:411] fc7 -> fc7
I0306 20:03:37.651852  2053 net.cpp:150] Setting up fc7
I0306 20:03:37.651917  2053 net.cpp:157] Top shape: 64 4096 (262144)
I0306 20:03:37.651928  2053 net.cpp:165] Memory required for data: 436954112
I0306 20:03:37.651947  2053 layer_factory.hpp:77] Creating layer relu7
I0306 20:03:37.651969  2053 net.cpp:106] Creating Layer relu7
I0306 20:03:37.651980  2053 net.cpp:454] relu7 <- fc7
I0306 20:03:37.651995  2053 net.cpp:397] relu7 -> fc7 (in-place)
I0306 20:03:37.652233  2053 net.cpp:150] Setting up relu7
I0306 20:03:37.652259  2053 net.cpp:157] Top shape: 64 4096 (262144)
I0306 20:03:37.652271  2053 net.cpp:165] Memory required for data: 438002688
I0306 20:03:37.652281  2053 layer_factory.hpp:77] Creating layer drop7
I0306 20:03:37.652297  2053 net.cpp:106] Creating Layer drop7
I0306 20:03:37.652307  2053 net.cpp:454] drop7 <- fc7
I0306 20:03:37.652318  2053 net.cpp:397] drop7 -> fc7 (in-place)
I0306 20:03:37.652361  2053 net.cpp:150] Setting up drop7
I0306 20:03:37.652376  2053 net.cpp:157] Top shape: 64 4096 (262144)
I0306 20:03:37.652385  2053 net.cpp:165] Memory required for data: 439051264
I0306 20:03:37.652395  2053 layer_factory.hpp:77] Creating layer fc8/yelp
I0306 20:03:37.652412  2053 net.cpp:106] Creating Layer fc8/yelp
I0306 20:03:37.652421  2053 net.cpp:454] fc8/yelp <- fc7
I0306 20:03:37.652434  2053 net.cpp:411] fc8/yelp -> fc8/yelp
I0306 20:03:37.653782  2053 net.cpp:150] Setting up fc8/yelp
I0306 20:03:37.653808  2053 net.cpp:157] Top shape: 64 9 (576)
I0306 20:03:37.653818  2053 net.cpp:165] Memory required for data: 439053568
I0306 20:03:37.653832  2053 layer_factory.hpp:77] Creating layer loss
I0306 20:03:37.653848  2053 net.cpp:106] Creating Layer loss
I0306 20:03:37.653858  2053 net.cpp:454] loss <- fc8/yelp
I0306 20:03:37.653868  2053 net.cpp:454] loss <- labels
I0306 20:03:37.653882  2053 net.cpp:411] loss -> loss
I0306 20:03:37.653942  2053 net.cpp:150] Setting up loss
…
